app/src/main/ml/moview_review_metadata.tflite (tflite, 769526 bytes, 5 tensors)

sequential_2/dense_4/BiasAdd/ReadVariableOp/resource f4 [16]
00000000: 3fae 16bd 42f1 523d 8571 9e3d 1e93 913d
00000010: 6787 913d 2670 b93d 9cc3 463d f4b8 9ebb
00000020: b637 2f3d 637d b9bc 4669 763d a624 ae3d
00000030: f69b 0bbd 015c 80bb 8f40 4d3d 2d7a c63d
-0.036787268 0.051499613 0.07736496 0.071081385 0.07105904 0.09054594 0.04852639 -0.0048438255
0.04277774 -0.022642797 0.06015899 0.08503084 -0.034084283 -0.0039172177 0.050110396 0.09691272

sequential_2/dense_5/BiasAdd/ReadVariableOp/resource f4 [2]
00000000: ec4c a7bd ee4c a73d
-0.081689686 0.0816897

sequential_2/embedding_2/embedding_lookup/21663 f4 [10003, 16]
00000000: eb46 d33c 65dd 52bc 03a6 a2bb 2c84 dc3c
00000010: c8c8 863d f413 9e3c 50a6 88bc a4b4 c53d
00000020: 141f 0b3c e454 ffbb d2f7 b13b fa7c 223d
00000030: 6599 0ebd c84a b7bc 63df 973d a033 f2ba
00000040: 74cb 4fbd 6ce2 0d3b 9d92 d83b 37b0 cfbc
00000050: 813c 0e3d 7e7f 8e3c b45a 11bd 947f c03d
00000060: 52f3 11bc d25b 68bd 2d0a 963d 70a5 273c
00000070: 46b5 06bd 0397 24bd a64a 043d 9ab0 5e3d
00000080: 82e1 85bd c20e 773d 6ef3 e8bc 700c 82bd
00000090: 3f6a 4b3c d203 9f3c 8c87 59bd 167a 2f3d
000000a0: f2be 6d3d 7035 faba f193 493d 1556 3f3d
000000b0: aff8 83bd 7928 50bd 0d80 7b3c 711b 3c3d
000000c0: 5a7c c4bc ecd4 fd3c 37b9 81bd 15f1 e439
000000d0: 6223 273d a4b4 1e3d b0a9 e13c 7e5e 133e
000000e0: c1ec 83bd ba7e 96bd 44b6 8ebc ce81 b53d
000000f0: f62c 86b9 7a11 c83c a0b4 f33d 3319 08bd
00000100: 76d7 a23d ee88 1fbd 42c4 f4bd 83ab bc3c
00000110: 7d63 6bbd 7740 913d 1e71 b13d 3176 023e
00000120: 560d f8bc 0cbc 7e3d 98ec a0bd 8a34 e43d
00000130: 6d85 22bb 4b98 893d 69ea 003e c69e 37bc
00000140: 031e 6d3c 87f2 603d 7f67 bcbd 6126 49bd
00000150: 6f54 fa3c 8c84 a33b 7e3c 983b 45a8 da3d
00000160: 89ea f33b 5789 2fbd 74d5 babc ecde cc3d
00000170: b688 76bd 15fb 2b3c b64e fa3d 90e0 afbc
00000180: 6fa9 11bd dcc5 d3bb e82a 1fbd 77d0 42bd
00000190: 9ce3 4a3c 3796 c93b 22c5 67bd 3edd de3d
000001a0: e0dd 033c adcb febc 5666 a33a 684d c53d
000001b0: 1786 4abd ec27 78bd d673 543d 6bf9 093a
000001c0: 193a 7b3c 43bc 333d 23e8 2bbd 4e06 66bd
000001d0: 5338 693d 361d 7bbc a6e1 643b c3f1 173e
000001e0: 2ef7 0a3a 807e ba3a eda5 183d bb63 943d
000001f0: 664d b7bc 29a3 a3bc de0f 803d 80a6 773d
00000200: d0e3 5c3d 7d69 3fbd cda7 32bd caab 02bd
00000210: 6dec 483d 55c4 d33d 1120 833d 6645 e13d
00000220: 0974 2dbc 7a59 f7bb 58f0 a3bb d181 1a3e
00000230: 9c60 3dbb 5aaf 943c 7796 b93d c36f 44bd
00000240: 6633 72bc e6f5 8d3d b42e 79bc 10e9 babd
00000250: aac7 8f3d 45fa 0f3d 3083 7a3b 4e70 f33d
00000260: fba1 ad3c cc24 a8bc a33c 5a3d 472b 5a3d
00000270: 2006 71bc 1e3b 99bc 474b c93c 5bf7 ad3d
00000280: 29ff 46bd fe6a a03c 73d6 6ebd fdf2 123d
00000290: 96b5 9e3c 8fe7 3dbc 91c7 2a3c bf8a 003e
000002a0: b94d 833c 2a1c 543b dd55 403d 69a5 b83d
000002b0: 738c babd af94 30bd 5e76 cb3d 1e26 1abd
000002c0: 8254 8b3d 5d84 5abd a9cd 28be 58c2 273d
000002d0: f4fd 16bd bc31 ea3d 6327 963d ad67 083e
000002e0: ece6 d6bd 8bf5 de3d 09ff a3bc e910 063e
000002f0: a797 ca3d 3d79 0e3e e399 303e 5e55 e3bd
00000300: e33f fa3b 0599 3cbd e266 16bd 498d 76bc
00000310: e894 07bd 9412 d53c e8bd 9a3d dfbe ea3d
00000320: 2f8b 6ebc 3a92 573d 4ca5 023d 5547 803d
00000330: 9a02 613c 82d5 153d 80c0 a73d 863e 2ebd
00000340: 9ca7 afbb 2227 963d 0cb8 27bd e8d6 bcbd
00000350: 96c7 933d b295 a73c 2ed4 ad3c bb42 2d3e
00000360: 99f0 4b3d 7215 c5bc c25d 553d 598c 093c
00000370: c1e7 26bd 3e6c ef3c 2382 c23d 3472 693d
00000380: fb43 163d 621c fa3b 5e13 3cbd 6084 63bd
00000390: 1b6c 8e3c de70 8b3d c9ce 073d 0c8f f73d
000003a0: 912f fe3c d7aa 123c 5554 773d f91a 463d
000003b0: ec19 bbbb 2ae5 713d 7f12 273d 761b 6b3d
000003c0: 46a9 bebd 640b 993d 3194 dc3b 5b95 86bd
000003d0: 315c 403d 981e 94bb c27e babd 8888 d63b
000003e0: e694 b93d ca55 d2bd f25b 903d 7003 5fbd
000003f0: 7900 92bd bbfc 9dbd 726d f23c ab68 e43d
0.025790652 -0.012870167 -0.004963638 0.026918493 0.06581265 0.019296624 -0.016680866 0.09653595
0.008491296 -0.007792102 0.005431154 0.03966997 -0.034814257 -0.022374526 0.074156545 -0.001847852
-0.050731137 0.002164985 0.0066092745 -0.02535258 0.03472567 0.017394777 -0.035486892 0.093993336
-0.00890811 -0.05672819 0.073261596 0.0102323145 -0.03288772 -0.04018308 0.032297753 0.05436764
-0.06537153 0.06031681 -0.028436389 -0.063500285 0.012415468 0.019411001 -0.053107783 0.04284104
0.058043428 -0.0019089412 0.049213354 0.046712954 -0.06443917 -0.050819848 0.015350354 0.045924608
-0.023985077 0.030985318 -0.06334155 0.0004366717 0.040805228 0.03874649 0.027546734 0.14391515
-0.064416416 -0.0734839 -0.017420895 0.08862649 -0.0002559197 0.024422396 0.11899686 -0.033227157
0.07951252 -0.038948946 -0.11951496 0.023031002 -0.057467926 0.07092374 0.086641535 0.12740399
-0.030279797 0.062191054 -0.07857627 0.111428335 -0.0024798766 0.06718501 0.1258942 -0.011207288
0.014472487 0.054918792 -0.09199428 -0.049108867 0.03055784 0.004990166 0.004645883 0.10676626
0.0074437303 -0.042855587 -0.02280686 0.100034565 -0.06018897 0.010496874 0.12222044 -0.021469384
-0.035561975 -0.0064627957 -0.038859278 -0.04756209 0.012383368 0.00615194 -0.056584485 0.10882042
0.008048505 -0.03110298 0.0012466412 0.09633905 -0.049444284 -0.060584947 0.051868282 0.00052633014
0.015333676 0.043880712 -0.04196943 -0.056158356 0.05693848 -0.015326789 0.0034924536 0.14838319
0.0005301115 0.0014228374 0.037267614 0.072455846 -0.022375774 -0.019975262 0.062530264 0.06046152
0.053928196 -0.04673146 -0.04361706 -0.031902112 0.0490536 0.10340182 0.064026006 0.10999565
-0.010586747 -0.0075485082 -0.0050030164 0.15088584 -0.0028896695 0.01815002 0.09061902 -0.047958147
-0.014782762 0.06931667 -0.015208889 -0.091264844 0.07020505 0.035150785 0.0038225166 0.11886655
0.021195402 -0.020525359 0.053280484 0.05326393 -0.014710933 -0.018704947 0.024572028 0.08494445
-0.048583183 0.019582268 -0.058309983 0.035876263 0.019373696 -0.011590852 0.010423557 0.12552927
0.016028272 0.003236542 0.046956886 0.090159245 -0.0910882 -0.043110546 0.09934686 -0.037634008
0.06803228 -0.053348888 -0.16484703 0.040956825 -0.036863282 0.11435267 0.07331731 0.13320799
-0.104932636 0.10886677 -0.020019071 0.13092388 0.09892207 0.13913436 0.17246203 -0.11100267
0.0076370104 -0.04604437 -0.03671921 -0.015048333 -0.033100992 0.026009835 0.07555753 0.11462187
-0.014559551 0.052629687 0.03189592 0.062636055 0.01373353 0.03658057 0.08191013 -0.042540096
-0.0053605568 0.07331683 -0.040947005 -0.092206776 0.07215802 0.020457122 0.02121934 0.16919987
0.04979 -0.024058077 0.052091368 0.008395278 -0.04074836 0.029226419 0.09497478 0.05699368
0.036685925 0.007632778 -0.045916907 -0.055546165 0.017385533 0.06808637 0.03315619 0.12087831
0.03102854 0.008951864 0.06038316 0.048365567 -0.0057098772 0.05905644 0.040789124 0.057399236
-0.0930963 0.07472876 0.006731533 -0.06571456 0.04696292 -0.0045202486 -0.091062084 0.0065470375
0.09061603 -0.10270269 0.07048787 -0.054446638 -0.071289964 -0.0771422 0.029593203 0.11152776

sequential_2/dense_4/MatMul f4 [16, 16]
00000000: 849e 85be b379 f03d 178c 543e cb51 263c
00000010: 31ea cfbd f59e 883e 0d78 9d3e 784c bebe
00000020: 6c02 6d3e d036 0a3e d7a2 bfbe 2b95 823e
00000030: 8a85 093d 7af7 783e 2297 ad3e affa 643e
00000040: c81e 75bf b3bd 693f c345 343f 1369 96bf
00000050: abb6 123f b83f 1ebf b568 65bf 2673 603e
00000060: 83c7 813f d381 67bf 0925 a53f 54e3 6ebe
00000070: 5b15 64bf 024d 9bbf 624e acbe 0a00 ae3f
00000080: 937a 84bf e39a 973f 4de1 d63e 559c 6abf
00000090: 51ed 343f 7e0b 99bf 6dd8 bbbf be76 7cbe
000000a0: 9b46 b63f f888 65bf 401f a93f ec03 34be
000000b0: affd 53be d390 56bf 070f 623e 9a44 913f
000000c0: 90b2 68bf 94f0 973f ff53 313f e35d 84bf
000000d0: 9474 2d3f f66d 1bbf 58a4 b1bf 21aa 94be
000000e0: abcf ac3f 0c4d 97bf 6a7a b13f 0ddd c8be
000000f0: 5b15 1fbf ceb3 4ebf 3f5d 383c e452 a03f
00000100: 6ca3 5f3f 1bf9 5bbf b592 52bf 2b1f 923f
00000110: 57a1 31bf c094 983f 8a25 a43f 4311 cc3e
00000120: 3844 cbbf f3cb 7b3f 0d17 b8bf 6476 be3e
00000130: 8924 503f 2da8 3c3f 02c5 3c3f 10b1 9abf
00000140: de7a a2bf 5f38 283f 84d6 123f 3728 93bf
00000150: 651b 5f3f 21f3 7bbf f96d adbf 0d0e 6fbe
00000160: b5a2 c03f 9fb3 9cbf 839b 903f e14e b1be
00000170: 9a2b 68bf 4e4a 67bf 0a8d d1be 187a 8a3f
00000180: 15c8 4abf 6291 7e3f 62e2 5f3f 9de6 83bf
00000190: b8ea de3e bfd0 73bf 8f99 38bf 17d7 5c3e
000001a0: 7bad c13f 4098 7bbf 9a56 a03f f4b1 c2bd
000001b0: ab84 74bf 7303 adbf 8c21 13be 4c79 ae3f
000001c0: ce0c 14bc 428a b7be 9951 4a3e f89b 1ebe
000001d0: e900 d5bd 0d42 03be 28d4 8b3e 9197 98be
000001e0: ee54 593e 6afa c7be c011 7abe 4504 b23e
000001f0: 3564 603d f4ac 653d dca5 42be fb70 ccbe
00000200: 2068 c13f 252f b2bf 922a 15bf 7985 6e3f
00000210: 2837 b8be f433 993f b733 c43f 99b9 0a3f
00000220: 7d6e 99bf 8f3a 793f 2d69 85bf a01e 483f
00000230: f712 703e a81f 903f ae65 b3bc 47c1 dabf
00000240: 379e dcbb 8074 b53c b9c9 ae3e 99a0 b1bd
00000250: c7d4 9f3c daeb 74be d73b c53e e1e3 f63d
00000260: abdb d2be 37a0 083e d60b ae3e 8e39 9c3e
00000270: a63c 8cbe e4f5 783e 5a6b cbbe 5c1d c3be
00000280: e808 8e3f e926 a5bf 0a04 92bf 97d7 473f
00000290: f8d0 34bf 1f84 823f a3f9 7b3f b9fa dd3e
000002a0: 1130 c8bf e011 b83f 3019 3cbf 90fa 633f
000002b0: aedb b83e c1e3 873f c9cf 143f b10e d5bf
000002c0: f824 783f 97ec 98bf cf6b 72bf b98c aa3f
000002d0: ddba 0abf d86d 613f 49bd a43f 1080 293e
000002e0: b4fd dcbf 9787 803f 0485 acbf 1edc 8b3e
000002f0: 97d3 9b3e 311c 703f 2e92 e63e 9d4f 82bf
00000300: 895a aebe e465 55bb baa5 8dbd b197 3d3e
00000310: 844c 76be 767b 183e cd2c 50be 62ae 89be
00000320: 8020 5b3e 8797 08bd a9d7 973e d7ad 6b3e
00000330: 5d98 c6be dec7 03be a03f bdbd 77cb 9cbe
00000340: 4214 4fbe c930 193e a504 ce3e 3251 c63e
00000350: 2834 d43d 8552 ad3e 2659 be3e 4df0 55bd
00000360: 896f ab3e db3d 3f3e 4d4f ce3d 5bb7 39be
00000370: 1d68 963e 4548 c33e eee8 323d 52df 4c3e
00000380: 7025 833f e329 84bf 0010 75bf a59b b53f
00000390: a17c a9be ba8f 463f 1d86 ab3f cb27 ac3e
000003a0: a4aa c5bf c317 833f da2f b3bf b5c7 3f3f
000003b0: 394c 513f e705 983f b964 2f3f c732 95bf
000003c0: ae4c 80bf f8d4 a03f d4d3 023f af36 54bf
000003d0: 2022 2f3f e386 fabe cbb9 78bf e56c 213e
000003e0: 1c50 bf3f 8f06 61bf 5798 583f ddf5 b7be
000003f0: 0e14 e7be 713a 7dbf 2902 10bf 1e73 c13f
-0.260975 0.11741962 0.20756565 0.010151337 -0.1015209 0.26683775 0.30755654 -0.37167716
0.23145455 0.13497472 -0.37428924 0.2550443 0.03357462 0.24313155 0.33904368 0.22361253
-0.95750093 0.91305083 0.7041895 -1.1750816 0.5730998 -0.6181598 -0.89612895 0.21918926
1.0139011 -0.9043247 1.2901927 -0.23328906 -0.89095086 -1.2132876 -0.3365355 1.3593762
-1.0349907 1.1844143 0.41968766 -0.91644794 0.70674616 -1.1956632 -1.4675423 -0.24654672
1.4240297 -0.8966212 1.3212662 -0.17579621 -0.20702241 -0.83814734 0.22076045 1.134906
-0.90897465 1.1870294 0.6926879 -1.0341152 0.6775601 -0.6071466 -1.3878279 -0.29036048
1.3500875 -1.1820388 1.3865483 -0.39231148 -0.6214196 -0.8074311 0.0112527 1.2525296
0.87358737 -0.8592698 -0.8225511 1.1415762 -0.6938681 1.1920395 1.2823956 0.3985692
-1.5880194 0.98358077 -1.4382035 0.371997 0.8130575 0.73694116 0.7373811 -1.2085285
-1.2693746 0.65711015 0.57358575 -1.1496648 0.87151176 -0.9841786 -1.3549186 -0.23345204
1.5049654 -1.2242316 1.1297458 -0.34630492 -0.9069153 -0.90347755 -0.40927917 1.081851
-0.7921155 0.99440587 0.8745481 -1.0304753 0.4353845 -0.95240396 -0.7210931 0.21566425
1.5131067 -0.9827919 1.2526429 -0.09506598 -0.95514935 -1.3516678 -0.14368266 1.3630767
-0.009036256 -0.3584767 0.1975769 -0.15489185 -0.10400564 -0.12818165 0.273103 -0.29803136
0.21223804 -0.39058238 -0.24420834 0.34768882 0.054783065 0.056073144 -0.19008583 -0.39929947
1.5109901 -1.3920637 -0.5826808 0.93172413 -0.3597958 1.196898 1.5328282 0.5418945
-1.1986843 0.9735498 -1.0422722 0.7817173 0.23444735 1.1259661 -0.02189907 -1.7090234
-0.006732728 0.022150278 0.34138277 -0.0867321 0.01951064 -0.23918095 0.38522217 0.12055183
-0.41183218 0.13342367 0.33993405 0.3051266 -0.2739002 0.2431255 -0.3973034 -0.38108337
1.1096468 -1.29025 -1.1407483 0.7806334 -0.7063136 1.019657 0.9842779 0.4335535
-1.5639669 1.4380455 -0.73475933 0.89054203 0.36105102 1.061638 0.58129555 -1.6645108
0.9693141 -1.1947201 -0.9469575 1.3324195 -0.5419138 0.88058233 1.2870265 0.16552758
-1.7264924 1.0041379 -1.3478093 0.27316374 0.30434868 0.93793017 0.450334 -1.0180546
-0.34053448 -0.0032561952 -0.069163755 0.18514897 -0.24052626 0.14890847 -0.2032959 -0.26890856
0.21399117 -0.033347633 0.29656723 0.23015533 -0.3878812 -0.12869212 -0.09240651 -0.3062398
-0.20222571 0.14960016 0.40237918 0.38733822 0.103615105 0.3385202 0.3717739 -0.05223112
0.33483532 0.1867594 0.10073719 -0.18136351 0.29376307 0.38141075 0.04367917 0.20007065
1.02458 -1.0325283 -0.9572754 1.4188124 -0.33102897 0.7756306 1.3400303 0.3362411
-1.54427 1.0241627 -1.3998978 0.74914104 0.8175693 1.1876801 0.68513066 -1.1656121
-1.0023401 1.2564993 0.51104474 -0.8289594 0.68411446 -0.48931035 -0.971585 0.15764196
1.4946322 -0.8790063 0.8460745 -0.35929766 -0.45132488 -0.989173 -0.56253296 1.5113256

sequential_2/dense_5/MatMul f4 [2, 16]
00000000: bc6b f03e aaa8 b13f 8b03 603f cfa1 b53f
00000010: c08e 33bf 357f c23f b71b a23f 9e93 5c3e
00000020: ad81 a7bf 855c 27be d94a 04bf 2f34 10bf
00000030: 90ae aebe 3801 50be 3360 b8bf 0faa 703f
00000040: a346 e9be 87b0 86bf b95f 8cbf 566a 82bf
00000050: 157c 993f 1ab4 c0be 6aea 2cbf c9a7 9d3e
00000060: 02b9 693f 37bb 28be 96ad b13f e73d a83f
00000070: 6fc1 773e 6de7 e0bd 0fcf 463f fdb1 5dbf
0.46957195 1.3879597 0.87505406 1.4190005 -0.70139694 1.519507 1.2664708 0.21540686
-1.3086449 -0.16343887 -0.5167671 -0.56329626 -0.34117556 -0.20312965 -1.4404358 0.9400949
-0.45561704 -1.0522622 -1.0966712 -1.0188701 1.1990992 -0.37637407 -0.6754519 0.30792072
0.91297925 -0.16477667 1.3881099 1.3143891 0.24194883 -0.10981641 0.77659696 -0.86599714
